…
Modify $PATH to customize ptxas location.
This message will be only logged once.
WARNING:tensorflow:Callback method `on_train_batch_end` is slow compared to the batch time (batch time: 0.0413s vs `on_train_batch_end` time: 0.0575s). Check your callbacks.
Found 1120 images belonging to 4 classes.
Found 264 images belonging to 4 classes.
Found 220 images belonging to 4 classes.
Model: "sequential"
_________________________________________________________________
Layer (type)                 Output Shape              Param #
=================================================================
conv2d (Conv2D)              (None, 478, 638, 128)     3584
_________________________________________________________________
max_pooling2d (MaxPooling2D) (None, 239, 319, 128)     0
_________________________________________________________________
dropout (Dropout)            (None, 239, 319, 128)     0
_________________________________________________________________
conv2d_1 (Conv2D)            (None, 237, 317, 32)      36896
_________________________________________________________________
max_pooling2d_1 (MaxPooling2 (None, 118, 158, 32)      0
_________________________________________________________________
dropout_1 (Dropout)          (None, 118, 158, 32)      0
_________________________________________________________________
conv2d_2 (Conv2D)            (None, 116, 156, 64)      18496
_________________________________________________________________
max_pooling2d_2 (MaxPooling2 (None, 58, 78, 64)        0
_________________________________________________________________
dropout_2 (Dropout)          (None, 58, 78, 64)        0
_________________________________________________________________
conv2d_3 (Conv2D)            (None, 56, 76, 32)        18464
_________________________________________________________________
max_pooling2d_3 (MaxPooling2 (None, 28, 38, 32)        0
_________________________________________________________________
dropout_3 (Dropout)          (None, 28, 38, 32)        0
_________________________________________________________________
global_average_pooling2d (Gl (None, 32)                0
_________________________________________________________________
dropout_4 (Dropout)          (None, 32)                0
_________________________________________________________________
dense (Dense)                (None, 4)                 132
=================================================================
Total params: 77,572
Trainable params: 77,572
Non-trainable params: 0
_________________________________________________________________
Epoch 1/100








140/140 [==============================] - 24s 127ms/step - loss: 1.4040 - accuracy: 0.2467 - val_loss: 1.3761 - val_accuracy: 0.2727
Epoch 2/100







140/140 [==============================] - 17s 122ms/step - loss: 1.3834 - accuracy: 0.2399 - val_loss: 1.3728 - val_accuracy: 0.2727
…
