…
2022-06-23 03:43:56.784066: W tensorflow/core/common_runtime/bfc_allocator.cc:248] Allocator (GPU_0_bfc) ran out of memory trying to allocate 1.41GiB with freed_by_count=0. The caller indicates that this is not a failure, but may mean that there could be performance gains if more memory were available.
Found 1120 images belonging to 4 classes.
Found 264 images belonging to 4 classes.
Found 220 images belonging to 4 classes.
Model: "sequential"
_________________________________________________________________
Layer (type)                 Output Shape              Param #
=================================================================
conv2d (Conv2D)              (None, 478, 638, 128)     3584
_________________________________________________________________
max_pooling2d (MaxPooling2D) (None, 239, 319, 128)     0
_________________________________________________________________
dropout (Dropout)            (None, 239, 319, 128)     0
_________________________________________________________________
conv2d_1 (Conv2D)            (None, 237, 317, 16)      18448
_________________________________________________________________
max_pooling2d_1 (MaxPooling2 (None, 118, 158, 16)      0
_________________________________________________________________
dropout_1 (Dropout)          (None, 118, 158, 16)      0
_________________________________________________________________
conv2d_2 (Conv2D)            (None, 116, 156, 64)      9280
_________________________________________________________________
max_pooling2d_2 (MaxPooling2 (None, 58, 78, 64)        0
_________________________________________________________________
dropout_2 (Dropout)          (None, 58, 78, 64)        0
_________________________________________________________________
conv2d_3 (Conv2D)            (None, 56, 76, 32)        18464
_________________________________________________________________
max_pooling2d_3 (MaxPooling2 (None, 28, 38, 32)        0
_________________________________________________________________
dropout_3 (Dropout)          (None, 28, 38, 32)        0
_________________________________________________________________
global_average_pooling2d (Gl (None, 32)                0
_________________________________________________________________
dropout_4 (Dropout)          (None, 32)                0
_________________________________________________________________
dense (Dense)                (None, 4)                 132
=================================================================
Total params: 49,908
Trainable params: 49,908
Non-trainable params: 0
_________________________________________________________________
Epoch 1/100
2022-06-23 03:44:07.009296: W tensorflow/core/common_runtime/bfc_allocator.cc:433] Allocator (GPU_0_bfc) ran out of memory trying to allocate 1.16GiB (rounded to 1249132544)requested by op gradient_tape/sequential/conv2d_1/Conv2D/Conv2DBackpropInput
…
