…
2022-08-09 22:06:54.741794: I tensorflow/core/platform/cpu_feature_guard.cc:193] This TensorFlow binary is optimized with oneAPI Deep Neural Network Library (oneDNN) to use the following CPU instructions in performance-critical operations:  AVX2 FMA
To enable them in other operations, rebuild TensorFlow with the appropriate compiler flags.
Found 1552 images belonging to 4 classes.
Found 252 images belonging to 4 classes.
Found 315 images belonging to 4 classes.
Model: "sequential"
_________________________________________________________________
 Layer (type)                Output Shape              Param #
=================================================================
 conv2d (Conv2D)             (None, 478, 638, 64)      1792
 max_pooling2d (MaxPooling2D  (None, 239, 319, 64)     0
 )
 dropout (Dropout)           (None, 239, 319, 64)      0
 conv2d_1 (Conv2D)           (None, 237, 317, 64)      36928
 max_pooling2d_1 (MaxPooling  (None, 118, 158, 64)     0
 2D)
 dropout_1 (Dropout)         (None, 118, 158, 64)      0
 conv2d_2 (Conv2D)           (None, 116, 156, 128)     73856
 max_pooling2d_2 (MaxPooling  (None, 58, 78, 128)      0
 2D)
 dropout_2 (Dropout)         (None, 58, 78, 128)       0
 conv2d_3 (Conv2D)           (None, 56, 76, 64)        73792
 max_pooling2d_3 (MaxPooling  (None, 28, 38, 64)       0
 2D)
 dropout_3 (Dropout)         (None, 28, 38, 64)        0
 global_average_pooling2d (G  (None, 64)               0
 lobalAveragePooling2D)
 dropout_4 (Dropout)         (None, 64)                0
 dense (Dense)               (None, 4)                 260
=================================================================
Total params: 186,628
Trainable params: 186,628
Non-trainable params: 0
_________________________________________________________________




































































































































































































…
