…
2022-07-14 10:17:51.513550: W tensorflow/stream_executor/gpu/redzone_allocator.cc:314] Internal: ptxas exited with non-zero error code 256, output:
Relying on driver to perform ptx compilation.
Modify $PATH to customize ptxas location.
This message will be only logged once.
Found 1648 images belonging to 4 classes.
Found 282 images belonging to 4 classes.
Found 315 images belonging to 4 classes.
Model: "sequential"
_________________________________________________________________
Layer (type)                 Output Shape              Param #
=================================================================
conv2d (Conv2D)              (None, 478, 638, 64)      1792
_________________________________________________________________
max_pooling2d (MaxPooling2D) (None, 239, 319, 64)      0
_________________________________________________________________
dropout (Dropout)            (None, 239, 319, 64)      0
_________________________________________________________________
conv2d_1 (Conv2D)            (None, 237, 317, 64)      36928
_________________________________________________________________
max_pooling2d_1 (MaxPooling2 (None, 118, 158, 64)      0
_________________________________________________________________
dropout_1 (Dropout)          (None, 118, 158, 64)      0
_________________________________________________________________
conv2d_2 (Conv2D)            (None, 116, 156, 128)     73856
_________________________________________________________________
max_pooling2d_2 (MaxPooling2 (None, 58, 78, 128)       0
_________________________________________________________________
dropout_2 (Dropout)          (None, 58, 78, 128)       0
_________________________________________________________________
conv2d_3 (Conv2D)            (None, 56, 76, 64)        73792
_________________________________________________________________
max_pooling2d_3 (MaxPooling2 (None, 28, 38, 64)        0
_________________________________________________________________
dropout_3 (Dropout)          (None, 28, 38, 64)        0
_________________________________________________________________
global_average_pooling2d (Gl (None, 64)                0
_________________________________________________________________
dropout_4 (Dropout)          (None, 64)                0
_________________________________________________________________
dense (Dense)                (None, 4)                 260
=================================================================
Total params: 186,628
Trainable params: 186,628
Non-trainable params: 0
_________________________________________________________________
Epoch 1/200












412/412 [==============================] - 39s 76ms/step - loss: 1.1808 - accuracy: 0.4174 - val_loss: 1.0599 - val_accuracy: 0.5851
Epoch 2/200












412/412 [==============================] - 27s 65ms/step - loss: 0.9516 - accuracy: 0.6110 - val_loss: 0.9388 - val_accuracy: 0.7270
…
