…
2022-07-07 10:03:37.671994: I tensorflow/core/platform/profile_utils/cpu_utils.cc:112] CPU Frequency: 3499755000 Hz
2022-07-07 10:03:38.560886: W tensorflow/core/framework/cpu_allocator_impl.cc:80] Allocation of 1249132544 exceeds 10% of free system memory.
Found 1584 images belonging to 4 classes.
Found 327 images belonging to 4 classes.
Found 408 images belonging to 4 classes.
Model: "sequential"
_________________________________________________________________
Layer (type)                 Output Shape              Param #
=================================================================
conv2d (Conv2D)              (None, 478, 638, 64)      1792
_________________________________________________________________
max_pooling2d (MaxPooling2D) (None, 239, 319, 64)      0
_________________________________________________________________
dropout (Dropout)            (None, 239, 319, 64)      0
_________________________________________________________________
conv2d_1 (Conv2D)            (None, 237, 317, 64)      36928
_________________________________________________________________
max_pooling2d_1 (MaxPooling2 (None, 118, 158, 64)      0
_________________________________________________________________
dropout_1 (Dropout)          (None, 118, 158, 64)      0
_________________________________________________________________
conv2d_2 (Conv2D)            (None, 116, 156, 64)      36928
_________________________________________________________________
max_pooling2d_2 (MaxPooling2 (None, 58, 78, 64)        0
_________________________________________________________________
dropout_2 (Dropout)          (None, 58, 78, 64)        0
_________________________________________________________________
conv2d_3 (Conv2D)            (None, 56, 76, 64)        36928
_________________________________________________________________
max_pooling2d_3 (MaxPooling2 (None, 28, 38, 64)        0
_________________________________________________________________
dropout_3 (Dropout)          (None, 28, 38, 64)        0
_________________________________________________________________
global_average_pooling2d (Gl (None, 64)                0
_________________________________________________________________
dropout_4 (Dropout)          (None, 64)                0
_________________________________________________________________
dense (Dense)                (None, 4)                 260
=================================================================
Total params: 112,836
Trainable params: 112,836
Non-trainable params: 0
_________________________________________________________________
Epoch 1/200
2022-07-07 10:03:45.867572: W tensorflow/core/framework/cpu_allocator_impl.cc:80] Allocation of 312283136 exceeds 10% of free system memory.
2022-07-07 10:03:46.976024: W tensorflow/core/framework/cpu_allocator_impl.cc:80] Allocation of 312283136 exceeds 10% of free system memory.
…
