…
2022-06-24 16:07:26.562465: W tensorflow/stream_executor/gpu/redzone_allocator.cc:314] Internal: ptxas exited with non-zero error code 256, output:
Relying on driver to perform ptx compilation.
Modify $PATH to customize ptxas location.
This message will be only logged once.
Found 1032 images belonging to 4 classes.
Found 234 images belonging to 4 classes.
Found 273 images belonging to 4 classes.
Model: "sequential"
_________________________________________________________________
Layer (type)                 Output Shape              Param #
=================================================================
conv2d (Conv2D)              (None, 478, 638, 64)      1792
_________________________________________________________________
max_pooling2d (MaxPooling2D) (None, 239, 319, 64)      0
_________________________________________________________________
dropout (Dropout)            (None, 239, 319, 64)      0
_________________________________________________________________
conv2d_1 (Conv2D)            (None, 237, 317, 64)      36928
_________________________________________________________________
max_pooling2d_1 (MaxPooling2 (None, 118, 158, 64)      0
_________________________________________________________________
dropout_1 (Dropout)          (None, 118, 158, 64)      0
_________________________________________________________________
conv2d_2 (Conv2D)            (None, 116, 156, 64)      36928
_________________________________________________________________
max_pooling2d_2 (MaxPooling2 (None, 58, 78, 64)        0
_________________________________________________________________
dropout_2 (Dropout)          (None, 58, 78, 64)        0
_________________________________________________________________
conv2d_3 (Conv2D)            (None, 56, 76, 64)        36928
_________________________________________________________________
max_pooling2d_3 (MaxPooling2 (None, 28, 38, 64)        0
_________________________________________________________________
dropout_3 (Dropout)          (None, 28, 38, 64)        0
_________________________________________________________________
global_average_pooling2d (Gl (None, 64)                0
_________________________________________________________________
dropout_4 (Dropout)          (None, 64)                0
_________________________________________________________________
dense (Dense)                (None, 4)                 260
=================================================================
Total params: 112,836
Trainable params: 112,836
Non-trainable params: 0
_________________________________________________________________
Epoch 1/120






129/129 [==============================] - 23s 129ms/step - loss: 1.3672 - accuracy: 0.3340 - val_loss: 1.2767 - val_accuracy: 0.4274
Epoch 2/120





129/129 [==============================] - 13s 102ms/step - loss: 1.2439 - accuracy: 0.4180 - val_loss: 1.1659 - val_accuracy: 0.4487
…
