…
2022-06-23 00:05:12.667363: W tensorflow/stream_executor/gpu/redzone_allocator.cc:314] Internal: ptxas exited with non-zero error code 256, output:
Relying on driver to perform ptx compilation.
Modify $PATH to customize ptxas location.
This message will be only logged once.
Found 1120 images belonging to 4 classes.
Found 264 images belonging to 4 classes.
Found 220 images belonging to 4 classes.
Model: "sequential"
_________________________________________________________________
Layer (type)                 Output Shape              Param #
=================================================================
conv2d (Conv2D)              (None, 478, 638, 32)      896
_________________________________________________________________
max_pooling2d (MaxPooling2D) (None, 239, 319, 32)      0
_________________________________________________________________
dropout (Dropout)            (None, 239, 319, 32)      0
_________________________________________________________________
conv2d_1 (Conv2D)            (None, 237, 317, 32)      9248
_________________________________________________________________
max_pooling2d_1 (MaxPooling2 (None, 118, 158, 32)      0
_________________________________________________________________
dropout_1 (Dropout)          (None, 118, 158, 32)      0
_________________________________________________________________
conv2d_2 (Conv2D)            (None, 116, 156, 16)      4624
_________________________________________________________________
max_pooling2d_2 (MaxPooling2 (None, 58, 78, 16)        0
_________________________________________________________________
dropout_2 (Dropout)          (None, 58, 78, 16)        0
_________________________________________________________________
conv2d_3 (Conv2D)            (None, 56, 76, 16)        2320
_________________________________________________________________
max_pooling2d_3 (MaxPooling2 (None, 28, 38, 16)        0
_________________________________________________________________
dropout_3 (Dropout)          (None, 28, 38, 16)        0
_________________________________________________________________
global_average_pooling2d (Gl (None, 16)                0
_________________________________________________________________
dropout_4 (Dropout)          (None, 16)                0
_________________________________________________________________
dense (Dense)                (None, 4)                 68
=================================================================
Total params: 17,156
Trainable params: 17,156
Non-trainable params: 0
_________________________________________________________________
Epoch 1/100







35/35 [==============================] - 24s 511ms/step - loss: 1.3889 - accuracy: 0.2541 - val_loss: 1.3808 - val_accuracy: 0.2992
Epoch 2/100






35/35 [==============================] - 15s 434ms/step - loss: 1.3788 - accuracy: 0.2783 - val_loss: 1.3667 - val_accuracy: 0.4167
…
