…
2022-06-22 20:48:50.843215: W tensorflow/stream_executor/gpu/redzone_allocator.cc:314] Internal: ptxas exited with non-zero error code 256, output:
Relying on driver to perform ptx compilation.
Modify $PATH to customize ptxas location.
This message will be only logged once.
Found 1120 images belonging to 4 classes.
Found 264 images belonging to 4 classes.
Found 220 images belonging to 4 classes.
Model: "sequential"
_________________________________________________________________
Layer (type)                 Output Shape              Param #
=================================================================
conv2d (Conv2D)              (None, 478, 638, 64)      1792
_________________________________________________________________
max_pooling2d (MaxPooling2D) (None, 239, 319, 64)      0
_________________________________________________________________
dropout (Dropout)            (None, 239, 319, 64)      0
_________________________________________________________________
conv2d_1 (Conv2D)            (None, 237, 317, 128)     73856
_________________________________________________________________
max_pooling2d_1 (MaxPooling2 (None, 118, 158, 128)     0
_________________________________________________________________
dropout_1 (Dropout)          (None, 118, 158, 128)     0
_________________________________________________________________
conv2d_2 (Conv2D)            (None, 116, 156, 32)      36896
_________________________________________________________________
max_pooling2d_2 (MaxPooling2 (None, 58, 78, 32)        0
_________________________________________________________________
dropout_2 (Dropout)          (None, 58, 78, 32)        0
_________________________________________________________________
conv2d_3 (Conv2D)            (None, 56, 76, 32)        9248
_________________________________________________________________
max_pooling2d_3 (MaxPooling2 (None, 28, 38, 32)        0
_________________________________________________________________
dropout_3 (Dropout)          (None, 28, 38, 32)        0
_________________________________________________________________
global_average_pooling2d (Gl (None, 32)                0
_________________________________________________________________
dropout_4 (Dropout)          (None, 32)                0
_________________________________________________________________
dense (Dense)                (None, 4)                 132
=================================================================
Total params: 121,924
Trainable params: 121,924
Non-trainable params: 0
_________________________________________________________________
Epoch 1/100
 40/280 [===>..........................] - ETA: 11s - loss: 1.4441 - accuracy: 0.2392






280/280 [==============================] - 23s 60ms/step - loss: 1.3846 - accuracy: 0.2776 - val_loss: 1.1792 - val_accuracy: 0.4394
…
