…
2022-06-13 23:31:26.079328: W tensorflow/stream_executor/gpu/asm_compiler.cc:63] Running ptxas --version returned 256
2022-06-13 23:31:26.119454: W tensorflow/stream_executor/gpu/redzone_allocator.cc:314] Internal: ptxas exited with non-zero error code 256, output:
Relying on driver to perform ptx compilation.
Modify $PATH to customize ptxas location.
This message will be only logged once.
Found 924 images belonging to 3 classes.
Model: "sequential"
_________________________________________________________________
Layer (type)                 Output Shape              Param #
=================================================================
conv2d (Conv2D)              (None, 478, 638, 16)      448
_________________________________________________________________
max_pooling2d (MaxPooling2D) (None, 239, 319, 16)      0
_________________________________________________________________
dropout (Dropout)            (None, 239, 319, 16)      0
_________________________________________________________________
conv2d_1 (Conv2D)            (None, 237, 317, 128)     18560
_________________________________________________________________
max_pooling2d_1 (MaxPooling2 (None, 118, 158, 128)     0
_________________________________________________________________
dropout_1 (Dropout)          (None, 118, 158, 128)     0
_________________________________________________________________
conv2d_2 (Conv2D)            (None, 116, 156, 16)      18448
_________________________________________________________________
max_pooling2d_2 (MaxPooling2 (None, 58, 78, 16)        0
_________________________________________________________________
dropout_2 (Dropout)          (None, 58, 78, 16)        0
_________________________________________________________________
conv2d_3 (Conv2D)            (None, 56, 76, 16)        2320
_________________________________________________________________
max_pooling2d_3 (MaxPooling2 (None, 28, 38, 16)        0
_________________________________________________________________
dropout_3 (Dropout)          (None, 28, 38, 16)        0
_________________________________________________________________
flatten (Flatten)            (None, 17024)             0
_________________________________________________________________
dense (Dense)                (None, 128)               2179200
_________________________________________________________________
dense_1 (Dense)              (None, 3)                 387
=================================================================
Total params: 2,219,363
Trainable params: 2,219,363
Non-trainable params: 0
_________________________________________________________________
Epoch 1/20














15/15 [==============================] - 56s 3s/step - loss: 0.9456 - accuracy: 0.3852
Epoch 2/20














15/15 [==============================] - 49s 3s/step - loss: 0.6054 - accuracy: 0.4198
…
