…
2022-06-23 04:06:39.929701: W tensorflow/stream_executor/gpu/redzone_allocator.cc:314] Internal: ptxas exited with non-zero error code 256, output:
Relying on driver to perform ptx compilation.
Modify $PATH to customize ptxas location.
This message will be only logged once.
Found 1120 images belonging to 4 classes.
Found 264 images belonging to 4 classes.
Found 220 images belonging to 4 classes.
Model: "sequential"
_________________________________________________________________
Layer (type)                 Output Shape              Param #
=================================================================
conv2d (Conv2D)              (None, 478, 638, 32)      896
_________________________________________________________________
max_pooling2d (MaxPooling2D) (None, 239, 319, 32)      0
_________________________________________________________________
dropout (Dropout)            (None, 239, 319, 32)      0
_________________________________________________________________
conv2d_1 (Conv2D)            (None, 237, 317, 64)      18496
_________________________________________________________________
max_pooling2d_1 (MaxPooling2 (None, 118, 158, 64)      0
_________________________________________________________________
dropout_1 (Dropout)          (None, 118, 158, 64)      0
_________________________________________________________________
conv2d_2 (Conv2D)            (None, 116, 156, 64)      36928
_________________________________________________________________
max_pooling2d_2 (MaxPooling2 (None, 58, 78, 64)        0
_________________________________________________________________
dropout_2 (Dropout)          (None, 58, 78, 64)        0
_________________________________________________________________
conv2d_3 (Conv2D)            (None, 56, 76, 32)        18464
_________________________________________________________________
max_pooling2d_3 (MaxPooling2 (None, 28, 38, 32)        0
_________________________________________________________________
dropout_3 (Dropout)          (None, 28, 38, 32)        0
_________________________________________________________________
global_average_pooling2d (Gl (None, 32)                0
_________________________________________________________________
dropout_4 (Dropout)          (None, 32)                0
_________________________________________________________________
dense (Dense)                (None, 4)                 132
=================================================================
Total params: 74,916
Trainable params: 74,916
Non-trainable params: 0
_________________________________________________________________
Epoch 1/100








70/70 [==============================] - 24s 260ms/step - loss: 1.3947 - accuracy: 0.2776 - val_loss: 1.2785 - val_accuracy: 0.3561
Epoch 2/100






70/70 [==============================] - 16s 223ms/step - loss: 1.2965 - accuracy: 0.4205 - val_loss: 1.2014 - val_accuracy: 0.3977
…
