Create sweep with ID: keo9xzk5
Sweep URL: https://wandb.ai/mgatlin3/sweep-FT/sweeps/keo9xzk5
signal only works in main thread of the main interpreter
Found 1552 images belonging to 4 classes.
Found 252 images belonging to 4 classes.
Found 315 images belonging to 4 classes.
Model: "sequential"
_________________________________________________________________
 Layer (type)                Output Shape              Param #   
=================================================================
 conv2d (Conv2D)             (None, 478, 638, 16)      448       
                                                                 
 max_pooling2d (MaxPooling2D  (None, 239, 319, 16)     0         
 )                                                               
                                                                 
 dropout (Dropout)           (None, 239, 319, 16)      0         
                                                                 
 conv2d_1 (Conv2D)           (None, 237, 317, 128)     18560     
                                                                 
 max_pooling2d_1 (MaxPooling  (None, 118, 158, 128)    0         
 2D)                                                             
                                                                 
 dropout_1 (Dropout)         (None, 118, 158, 128)     0         
                                                                 
 conv2d_2 (Conv2D)           (None, 116, 156, 32)      36896     
                                                                 
 max_pooling2d_2 (MaxPooling  (None, 58, 78, 32)       0         
 2D)                                                             
                                                                 
 dropout_2 (Dropout)         (None, 58, 78, 32)        0         
                                                                 
 conv2d_3 (Conv2D)           (None, 56, 76, 128)       36992     
                                                                 
 max_pooling2d_3 (MaxPooling  (None, 28, 38, 128)      0         
 2D)                                                             
                                                                 
 dropout_3 (Dropout)         (None, 28, 38, 128)       0         
                                                                 
 global_average_pooling2d (G  (None, 128)              0         
 lobalAveragePooling2D)                                          
                                                                 
 dropout_4 (Dropout)         (None, 128)               0         
                                                                 
 dense (Dense)               (None, 4)                 516       
                                                                 
=================================================================
Total params: 93,412
Trainable params: 93,412
Non-trainable params: 0
_________________________________________________________________
Epoch 1/50
  1/194 [..............................] - ETA: 3:19 - loss: 1.4806 - accuracy: 0.0000e+00
…
