Create sweep with ID: otbrtpw1
Sweep URL: https://wandb.ai/mgatlin3/sweep-FT/sweeps/otbrtpw1
signal only works in main thread of the main interpreter
Found 1552 images belonging to 4 classes.
Found 252 images belonging to 4 classes.
Found 315 images belonging to 4 classes.
Model: "sequential"
_________________________________________________________________
 Layer (type)                Output Shape              Param #   
=================================================================
 conv2d (Conv2D)             (None, 478, 638, 32)      896       
                                                                 
 max_pooling2d (MaxPooling2D  (None, 239, 319, 32)     0         
 )                                                               
                                                                 
 dropout (Dropout)           (None, 239, 319, 32)      0         
                                                                 
 conv2d_1 (Conv2D)           (None, 237, 317, 32)      9248      
                                                                 
 max_pooling2d_1 (MaxPooling  (None, 118, 158, 32)     0         
 2D)                                                             
                                                                 
 dropout_1 (Dropout)         (None, 118, 158, 32)      0         
                                                                 
 conv2d_2 (Conv2D)           (None, 116, 156, 128)     36992     
                                                                 
 max_pooling2d_2 (MaxPooling  (None, 58, 78, 128)      0         
 2D)                                                             
                                                                 
 dropout_2 (Dropout)         (None, 58, 78, 128)       0         
                                                                 
 conv2d_3 (Conv2D)           (None, 56, 76, 32)        36896     
                                                                 
 max_pooling2d_3 (MaxPooling  (None, 28, 38, 32)       0         
 2D)                                                             
                                                                 
 dropout_3 (Dropout)         (None, 28, 38, 32)        0         
                                                                 
 global_average_pooling2d (G  (None, 32)               0         
 lobalAveragePooling2D)                                          
                                                                 
 dropout_4 (Dropout)         (None, 32)                0         
                                                                 
 dense (Dense)               (None, 4)                 132       
                                                                 
=================================================================
Total params: 84,164
Trainable params: 84,164
Non-trainable params: 0
_________________________________________________________________
Epoch 1/50
 1/13 [=>............................] - ETA: 3:49 - loss: 1.3876 - accuracy: 0.2812
…
=========================] - 196s 15s/step - loss: 1.3307 - accuracy: 0.3402 - val_loss: 1.2657 - val_accuracy: 0.3333 - _timestamp: 1660838089.0000 - _runtime: 10062.0000
signal only works in main thread of the main interpreter
Found 1552 images belonging to 4 classes.
Found 252 images belonging to 4 classes.
Found 315 images belonging to 4 classes.
Model: "sequential"
_________________________________________________________________
 Layer (type)                Output Shape              Param #   
=================================================================
 conv2d (Conv2D)             (None, 478, 638, 128)     3584      
                                                                 
 max_pooling2d (MaxPooling2D  (None, 239, 319, 128)    0         
 )                                                               
                                                                 
 dropout (Dropout)           (None, 239, 319, 128)     0         
                                                                 
 conv2d_1 (Conv2D)           (None, 237, 317, 64)      73792     
                                                                 
 max_pooling2d_1 (MaxPooling  (None, 118, 158, 64)     0         
 2D)                                                             
                                                                 
 dropout_1 (Dropout)         (None, 118, 158, 64)      0         
                                                                 
 conv2d_2 (Conv2D)           (None, 116, 156, 16)      9232      
                                                                 
 max_pooling2d_2 (MaxPooling  (None, 58, 78, 16)       0         
 2D)                                                             
                                                                 
 dropout_2 (Dropout)         (None, 58, 78, 16)        0         
                                                                 
 conv2d_3 (Conv2D)           (None, 56, 76, 64)        9280      
                                                                 
 max_pooling2d_3 (MaxPooling  (None, 28, 38, 64)       0         
 2D)                                                             
                                                                 
 dropout_3 (Dropout)         (None, 28, 38, 64)        0         
                                                                 
 global_average_pooling2d (G  (None, 64)               0         
 lobalAveragePooling2D)                                          
                                                                 
 dropout_4 (Dropout)         (None, 64)                0         
                                                                 
 dense (Dense)               (None, 4)                 260       
                                                                 
=================================================================
Total params: 96,148
Trainable params: 96,148
Non-trainable params: 0
_________________________________________________________________
Epoch 1/20
 1/49 [..............................] - ETA: 9:20 - loss: 1.3520 - accuracy: 0.3750
…
