Create sweep with ID: mny6c5uf
Sweep URL: https://wandb.ai/mgatlin3/sweep-FT/sweeps/mny6c5uf
signal only works in main thread of the main interpreter
Found 1552 images belonging to 4 classes.
Found 252 images belonging to 4 classes.
Found 315 images belonging to 4 classes.
Model: "sequential"
_________________________________________________________________
 Layer (type)                Output Shape              Param #   
=================================================================
 conv2d (Conv2D)             (None, 478, 638, 32)      896       
                                                                 
 max_pooling2d (MaxPooling2D  (None, 239, 319, 32)     0         
 )                                                               
                                                                 
 dropout (Dropout)           (None, 239, 319, 32)      0         
                                                                 
 conv2d_1 (Conv2D)           (None, 237, 317, 128)     36992     
                                                                 
 max_pooling2d_1 (MaxPooling  (None, 118, 158, 128)    0         
 2D)                                                             
                                                                 
 dropout_1 (Dropout)         (None, 118, 158, 128)     0         
                                                                 
 conv2d_2 (Conv2D)           (None, 116, 156, 32)      36896     
                                                                 
 max_pooling2d_2 (MaxPooling  (None, 58, 78, 32)       0         
 2D)                                                             
                                                                 
 dropout_2 (Dropout)         (None, 58, 78, 32)        0         
                                                                 
 conv2d_3 (Conv2D)           (None, 56, 76, 128)       36992     
                                                                 
 max_pooling2d_3 (MaxPooling  (None, 28, 38, 128)      0         
 2D)                                                             
                                                                 
 dropout_3 (Dropout)         (None, 28, 38, 128)       0         
                                                                 
 global_average_pooling2d (G  (None, 128)              0         
 lobalAveragePooling2D)                                          
                                                                 
 dropout_4 (Dropout)         (None, 128)               0         
                                                                 
 dense (Dense)               (None, 4)                 516       
                                                                 
=================================================================
Total params: 112,292
Trainable params: 112,292
Non-trainable params: 0
_________________________________________________________________
Epoch 1/40
  1/388 [..............................] - ETA: 6:25 - loss: 1.4122 - accuracy: 0.0000e+00
…
=========================] - 57s 146ms/step - loss: 0.0719 - accuracy: 0.9742 - val_loss: 0.2545 - val_accuracy: 0.9325 - _timestamp: 1660857287.0000 - _runtime: 2297.0000
signal only works in main thread of the main interpreter
Found 1552 images belonging to 4 classes.
Found 252 images belonging to 4 classes.
Found 315 images belonging to 4 classes.
Model: "sequential"
_________________________________________________________________
 Layer (type)                Output Shape              Param #   
=================================================================
 conv2d (Conv2D)             (None, 478, 638, 16)      448       
                                                                 
 max_pooling2d (MaxPooling2D  (None, 239, 319, 16)     0         
 )                                                               
                                                                 
 dropout (Dropout)           (None, 239, 319, 16)      0         
                                                                 
 conv2d_1 (Conv2D)           (None, 237, 317, 32)      4640      
                                                                 
 max_pooling2d_1 (MaxPooling  (None, 118, 158, 32)     0         
 2D)                                                             
                                                                 
 dropout_1 (Dropout)         (None, 118, 158, 32)      0         
                                                                 
 conv2d_2 (Conv2D)           (None, 116, 156, 128)     36992     
                                                                 
 max_pooling2d_2 (MaxPooling  (None, 58, 78, 128)      0         
 2D)                                                             
                                                                 
 dropout_2 (Dropout)         (None, 58, 78, 128)       0         
                                                                 
 conv2d_3 (Conv2D)           (None, 56, 76, 32)        36896     
                                                                 
 max_pooling2d_3 (MaxPooling  (None, 28, 38, 32)       0         
 2D)                                                             
                                                                 
 dropout_3 (Dropout)         (None, 28, 38, 32)        0         
                                                                 
 global_average_pooling2d (G  (None, 32)               0         
 lobalAveragePooling2D)                                          
                                                                 
 dropout_4 (Dropout)         (None, 32)                0         
                                                                 
 dense (Dense)               (None, 4)                 132       
                                                                 
=================================================================
Total params: 79,108
Trainable params: 79,108
Non-trainable params: 0
_________________________________________________________________
Epoch 1/50
 1/97 [..............................] - ETA: 1:32 - loss: 1.4056 - accuracy: 0.1875
…
=========================] - 27s 280ms/step - loss: 0.6659 - accuracy: 0.7571 - val_loss: 0.6698 - val_accuracy: 0.7103 - _timestamp: 1660858672.0000 - _runtime: 1377.0000
signal only works in main thread of the main interpreter
Found 1552 images belonging to 4 classes.
Found 252 images belonging to 4 classes.
Found 315 images belonging to 4 classes.
Model: "sequential"
_________________________________________________________________
 Layer (type)                Output Shape              Param #   
=================================================================
 conv2d (Conv2D)             (None, 478, 638, 16)      448       
                                                                 
 max_pooling2d (MaxPooling2D  (None, 239, 319, 16)     0         
 )                                                               
                                                                 
 dropout (Dropout)           (None, 239, 319, 16)      0         
                                                                 
 conv2d_1 (Conv2D)           (None, 237, 317, 32)      4640      
                                                                 
 max_pooling2d_1 (MaxPooling  (None, 118, 158, 32)     0         
 2D)                                                             
                                                                 
 dropout_1 (Dropout)         (None, 118, 158, 32)      0         
                                                                 
 conv2d_2 (Conv2D)           (None, 116, 156, 16)      4624      
                                                                 
 max_pooling2d_2 (MaxPooling  (None, 58, 78, 16)       0         
 2D)                                                             
                                                                 
 dropout_2 (Dropout)         (None, 58, 78, 16)        0         
                                                                 
 conv2d_3 (Conv2D)           (None, 56, 76, 32)        4640      
                                                                 
 max_pooling2d_3 (MaxPooling  (None, 28, 38, 32)       0         
 2D)                                                             
                                                                 
 dropout_3 (Dropout)         (None, 28, 38, 32)        0         
                                                                 
 global_average_pooling2d (G  (None, 32)               0         
 lobalAveragePooling2D)                                          
                                                                 
 dropout_4 (Dropout)         (None, 32)                0         
                                                                 
 dense (Dense)               (None, 4)                 132       
                                                                 
=================================================================
Total params: 14,484
Trainable params: 14,484
Non-trainable params: 0
_________________________________________________________________
Epoch 1/30
 1/13 [=>............................] - ETA: 39s - loss: 1.3880 - accuracy: 0.2812
…
