Found 1552 images belonging to 4 classes.
Found 252 images belonging to 4 classes.
Found 315 images belonging to 4 classes.
Model: "sequential"
_________________________________________________________________
 Layer (type)                Output Shape              Param #   
=================================================================
 conv2d (Conv2D)             (None, 478, 638, 128)     3584      
                                                                 
 max_pooling2d (MaxPooling2D  (None, 239, 319, 128)    0         
 )                                                               
                                                                 
 dropout (Dropout)           (None, 239, 319, 128)     0         
                                                                 
 conv2d_1 (Conv2D)           (None, 237, 317, 16)      18448     
                                                                 
 max_pooling2d_1 (MaxPooling  (None, 118, 158, 16)     0         
 2D)                                                             
                                                                 
 dropout_1 (Dropout)         (None, 118, 158, 16)      0         
                                                                 
 conv2d_2 (Conv2D)           (None, 116, 156, 32)      4640      
                                                                 
 max_pooling2d_2 (MaxPooling  (None, 58, 78, 32)       0         
 2D)                                                             
                                                                 
 dropout_2 (Dropout)         (None, 58, 78, 32)        0         
                                                                 
 conv2d_3 (Conv2D)           (None, 56, 76, 32)        9248      
                                                                 
 max_pooling2d_3 (MaxPooling  (None, 28, 38, 32)       0         
 2D)                                                             
                                                                 
 dropout_3 (Dropout)         (None, 28, 38, 32)        0         
                                                                 
 global_average_pooling2d (G  (None, 32)               0         
 lobalAveragePooling2D)                                          
                                                                 
 dropout_4 (Dropout)         (None, 32)                0         
                                                                 
 dense (Dense)               (None, 4)                 132       
                                                                 
=================================================================
Total params: 36,052
Trainable params: 36,052
Non-trainable params: 0
_________________________________________________________________
Epoch 1/100
 1/97 [..............................] - ETA: 7:41 - loss: 1.5717 - accuracy: 0.1250
…
