…
2022-06-13 11:15:38.792816: W tensorflow/core/framework/cpu_allocator_impl.cc:80] Allocation of 624566272 exceeds 10% of free system memory.
2022-06-13 11:15:45.598975: W tensorflow/core/framework/cpu_allocator_impl.cc:80] Allocation of 312283136 exceeds 10% of free system memory.
2022-06-13 11:15:45.635843: W tensorflow/core/framework/cpu_allocator_impl.cc:80] Allocation of 624566272 exceeds 10% of free system memory.
Found 924 images belonging to 3 classes.
Model: "sequential"
_________________________________________________________________
Layer (type)                 Output Shape              Param #
=================================================================
conv2d (Conv2D)              (None, 478, 638, 32)      896
_________________________________________________________________
max_pooling2d (MaxPooling2D) (None, 239, 319, 32)      0
_________________________________________________________________
dropout (Dropout)            (None, 239, 319, 32)      0
_________________________________________________________________
conv2d_1 (Conv2D)            (None, 237, 317, 32)      9248
_________________________________________________________________
max_pooling2d_1 (MaxPooling2 (None, 118, 158, 32)      0
_________________________________________________________________
dropout_1 (Dropout)          (None, 118, 158, 32)      0
_________________________________________________________________
conv2d_2 (Conv2D)            (None, 116, 156, 32)      9248
_________________________________________________________________
max_pooling2d_2 (MaxPooling2 (None, 58, 78, 32)        0
_________________________________________________________________
dropout_2 (Dropout)          (None, 58, 78, 32)        0
_________________________________________________________________
conv2d_3 (Conv2D)            (None, 56, 76, 32)        9248
_________________________________________________________________
max_pooling2d_3 (MaxPooling2 (None, 28, 38, 32)        0
_________________________________________________________________
dropout_3 (Dropout)          (None, 28, 38, 32)        0
_________________________________________________________________
flatten (Flatten)            (None, 34048)             0
_________________________________________________________________
dense (Dense)                (None, 64)                2179136
_________________________________________________________________
dense_1 (Dense)              (None, 3)                 195
=================================================================
Total params: 2,207,971
Trainable params: 2,207,971
Non-trainable params: 0
_________________________________________________________________
Epoch 1/25
 1/58 [..............................] - ETA: 11:01 - loss: 0.6354 - accuracy: 0.4375
2022-06-13 11:15:54.068492: W tensorflow/core/framework/cpu_allocator_impl.cc:80] Allocation of 624566272 exceeds 10% of free system memory.
…
