Found 924 images belonging to 3 classes.
Model: "sequential"
_________________________________________________________________
Layer (type)                 Output Shape              Param #
=================================================================
conv2d (Conv2D)              (None, 478, 638, 16)      448
_________________________________________________________________
max_pooling2d (MaxPooling2D) (None, 239, 319, 16)      0
_________________________________________________________________
dropout (Dropout)            (None, 239, 319, 16)      0
_________________________________________________________________
conv2d_1 (Conv2D)            (None, 237, 317, 32)      4640
_________________________________________________________________
max_pooling2d_1 (MaxPooling2 (None, 118, 158, 32)      0
_________________________________________________________________
dropout_1 (Dropout)          (None, 118, 158, 32)      0
_________________________________________________________________
conv2d_2 (Conv2D)            (None, 116, 156, 64)      18496
_________________________________________________________________
max_pooling2d_2 (MaxPooling2 (None, 58, 78, 64)        0
_________________________________________________________________
dropout_2 (Dropout)          (None, 58, 78, 64)        0
_________________________________________________________________
conv2d_3 (Conv2D)            (None, 56, 76, 128)       73856
_________________________________________________________________
max_pooling2d_3 (MaxPooling2 (None, 28, 38, 128)       0
_________________________________________________________________
dropout_3 (Dropout)          (None, 28, 38, 128)       0
_________________________________________________________________
flatten (Flatten)            (None, 136192)            0
_________________________________________________________________
dense (Dense)                (None, 64)                8716352
_________________________________________________________________
dense_1 (Dense)              (None, 3)                 195
=================================================================
Total params: 8,813,987
Trainable params: 8,813,987
Non-trainable params: 0
_________________________________________________________________
Epoch 1/20
2022-06-13 14:42:35.730794: I tensorflow/compiler/jit/xla_cpu_device.cc:41] Not creating XLA devices, tf_xla_enable_xla_devices not set
2022-06-13 14:42:35.731448: W tensorflow/stream_executor/platform/default/dso_loader.cc:60] Could not load dynamic library 'libcuda.so.1'; dlerror: libcuda.so.1: cannot open shared object file: No such file or directory
…
