…
2022-06-22 22:42:23.713538: W tensorflow/core/common_runtime/bfc_allocator.cc:248] Allocator (GPU_0_bfc) ran out of memory trying to allocate 493.21MiB with freed_by_count=0. The caller indicates that this is not a failure, but may mean that there could be performance gains if more memory were available.
Found 1120 images belonging to 4 classes.
Found 264 images belonging to 4 classes.
Found 220 images belonging to 4 classes.
Model: "sequential"
_________________________________________________________________
Layer (type)                 Output Shape              Param #
=================================================================
conv2d (Conv2D)              (None, 478, 638, 64)      1792
_________________________________________________________________
max_pooling2d (MaxPooling2D) (None, 239, 319, 64)      0
_________________________________________________________________
dropout (Dropout)            (None, 239, 319, 64)      0
_________________________________________________________________
conv2d_1 (Conv2D)            (None, 237, 317, 32)      18464
_________________________________________________________________
max_pooling2d_1 (MaxPooling2 (None, 118, 158, 32)      0
_________________________________________________________________
dropout_1 (Dropout)          (None, 118, 158, 32)      0
_________________________________________________________________
conv2d_2 (Conv2D)            (None, 116, 156, 16)      4624
_________________________________________________________________
max_pooling2d_2 (MaxPooling2 (None, 58, 78, 16)        0
_________________________________________________________________
dropout_2 (Dropout)          (None, 58, 78, 16)        0
_________________________________________________________________
conv2d_3 (Conv2D)            (None, 56, 76, 16)        2320
_________________________________________________________________
max_pooling2d_3 (MaxPooling2 (None, 28, 38, 16)        0
_________________________________________________________________
dropout_3 (Dropout)          (None, 28, 38, 16)        0
_________________________________________________________________
global_average_pooling2d (Gl (None, 16)                0
_________________________________________________________________
dropout_4 (Dropout)          (None, 16)                0
_________________________________________________________________
dense (Dense)                (None, 4)                 68
=================================================================
Total params: 27,268
Trainable params: 27,268
Non-trainable params: 0
_________________________________________________________________
Epoch 1/100
2022-06-22 22:42:33.875767: W tensorflow/core/common_runtime/bfc_allocator.cc:433] Allocator (GPU_0_bfc) ran out of memory trying to allocate 586.95MiB (rounded to 615456768)requested by op gradient_tape/sequential/max_pooling2d_1/MaxPool/MaxPoolGrad
…
