…
2022-06-14 04:57:32.013732: W tensorflow/stream_executor/gpu/asm_compiler.cc:63] Running ptxas --version returned 256
2022-06-14 04:57:32.055508: W tensorflow/stream_executor/gpu/redzone_allocator.cc:314] Internal: ptxas exited with non-zero error code 256, output:
Relying on driver to perform ptx compilation.
Modify $PATH to customize ptxas location.
This message will be only logged once.
Found 924 images belonging to 3 classes.
Model: "sequential"
_________________________________________________________________
Layer (type)                 Output Shape              Param #
=================================================================
conv2d (Conv2D)              (None, 478, 638, 64)      1792
_________________________________________________________________
max_pooling2d (MaxPooling2D) (None, 239, 319, 64)      0
_________________________________________________________________
dropout (Dropout)            (None, 239, 319, 64)      0
_________________________________________________________________
conv2d_1 (Conv2D)            (None, 237, 317, 16)      9232
_________________________________________________________________
max_pooling2d_1 (MaxPooling2 (None, 118, 158, 16)      0
_________________________________________________________________
dropout_1 (Dropout)          (None, 118, 158, 16)      0
_________________________________________________________________
conv2d_2 (Conv2D)            (None, 116, 156, 128)     18560
_________________________________________________________________
max_pooling2d_2 (MaxPooling2 (None, 58, 78, 128)       0
_________________________________________________________________
dropout_2 (Dropout)          (None, 58, 78, 128)       0
_________________________________________________________________
conv2d_3 (Conv2D)            (None, 56, 76, 16)        18448
_________________________________________________________________
max_pooling2d_3 (MaxPooling2 (None, 28, 38, 16)        0
_________________________________________________________________
dropout_3 (Dropout)          (None, 28, 38, 16)        0
_________________________________________________________________
flatten (Flatten)            (None, 17024)             0
_________________________________________________________________
dense (Dense)                (None, 16)                272400
_________________________________________________________________
dense_1 (Dense)              (None, 3)                 51
=================================================================
Total params: 320,483
Trainable params: 320,483
Non-trainable params: 0
_________________________________________________________________
Epoch 1/25






















29/29 [==============================] - 57s 2s/step - loss: 0.6812 - accuracy: 0.3610
Epoch 2/25























29/29 [==============================] - 48s 2s/step - loss: 0.5265 - accuracy: 0.6426
…
