…
2022-06-23 01:02:07.521292: W tensorflow/stream_executor/gpu/redzone_allocator.cc:314] Internal: ptxas exited with non-zero error code 256, output:
Relying on driver to perform ptx compilation.
Modify $PATH to customize ptxas location.
This message will be only logged once.
Found 1120 images belonging to 4 classes.
Found 264 images belonging to 4 classes.
Found 220 images belonging to 4 classes.
Model: "sequential"
_________________________________________________________________
Layer (type)                 Output Shape              Param #
=================================================================
conv2d (Conv2D)              (None, 478, 638, 64)      1792
_________________________________________________________________
max_pooling2d (MaxPooling2D) (None, 239, 319, 64)      0
_________________________________________________________________
dropout (Dropout)            (None, 239, 319, 64)      0
_________________________________________________________________
conv2d_1 (Conv2D)            (None, 237, 317, 64)      36928
_________________________________________________________________
max_pooling2d_1 (MaxPooling2 (None, 118, 158, 64)      0
_________________________________________________________________
dropout_1 (Dropout)          (None, 118, 158, 64)      0
_________________________________________________________________
conv2d_2 (Conv2D)            (None, 116, 156, 128)     73856
_________________________________________________________________
max_pooling2d_2 (MaxPooling2 (None, 58, 78, 128)       0
_________________________________________________________________
dropout_2 (Dropout)          (None, 58, 78, 128)       0
_________________________________________________________________
conv2d_3 (Conv2D)            (None, 56, 76, 16)        18448
_________________________________________________________________
max_pooling2d_3 (MaxPooling2 (None, 28, 38, 16)        0
_________________________________________________________________
dropout_3 (Dropout)          (None, 28, 38, 16)        0
_________________________________________________________________
global_average_pooling2d (Gl (None, 16)                0
_________________________________________________________________
dropout_4 (Dropout)          (None, 16)                0
_________________________________________________________________
dense (Dense)                (None, 4)                 68
=================================================================
Total params: 131,092
Trainable params: 131,092
Non-trainable params: 0
_________________________________________________________________
Epoch 1/100






280/280 [==============================] - 21s 55ms/step - loss: 1.3783 - accuracy: 0.2956 - val_loss: 1.2678 - val_accuracy: 0.3788
Epoch 2/100






280/280 [==============================] - 15s 54ms/step - loss: 1.2468 - accuracy: 0.3936 - val_loss: 1.2682 - val_accuracy: 0.4091
…
