…
2022-06-14 03:30:56.533781: W tensorflow/stream_executor/gpu/asm_compiler.cc:63] Running ptxas --version returned 256
2022-06-14 03:30:56.562707: W tensorflow/stream_executor/gpu/redzone_allocator.cc:314] Internal: ptxas exited with non-zero error code 256, output:
Relying on driver to perform ptx compilation.
Modify $PATH to customize ptxas location.
This message will be only logged once.
Found 924 images belonging to 3 classes.
Model: "sequential"
_________________________________________________________________
Layer (type)                 Output Shape              Param #
=================================================================
conv2d (Conv2D)              (None, 478, 638, 128)     3584
_________________________________________________________________
max_pooling2d (MaxPooling2D) (None, 239, 319, 128)     0
_________________________________________________________________
dropout (Dropout)            (None, 239, 319, 128)     0
_________________________________________________________________
conv2d_1 (Conv2D)            (None, 237, 317, 64)      73792
_________________________________________________________________
max_pooling2d_1 (MaxPooling2 (None, 118, 158, 64)      0
_________________________________________________________________
dropout_1 (Dropout)          (None, 118, 158, 64)      0
_________________________________________________________________
conv2d_2 (Conv2D)            (None, 116, 156, 64)      36928
_________________________________________________________________
max_pooling2d_2 (MaxPooling2 (None, 58, 78, 64)        0
_________________________________________________________________
dropout_2 (Dropout)          (None, 58, 78, 64)        0
_________________________________________________________________
conv2d_3 (Conv2D)            (None, 56, 76, 32)        18464
_________________________________________________________________
max_pooling2d_3 (MaxPooling2 (None, 28, 38, 32)        0
_________________________________________________________________
dropout_3 (Dropout)          (None, 28, 38, 32)        0
_________________________________________________________________
flatten (Flatten)            (None, 34048)             0
_________________________________________________________________
dense (Dense)                (None, 16)                544784
_________________________________________________________________
dense_1 (Dense)              (None, 3)                 51
=================================================================
Total params: 677,603
Trainable params: 677,603
Non-trainable params: 0
_________________________________________________________________
Epoch 1/10
























116/116 [==============================] - 56s 441ms/step - loss: 0.6448 - accuracy: 0.3833
Epoch 2/10
























116/116 [==============================] - 49s 423ms/step - loss: 0.5826 - accuracy: 0.5255
…
