…
2022-06-14 05:31:31.537746: W tensorflow/stream_executor/gpu/asm_compiler.cc:63] Running ptxas --version returned 256
2022-06-14 05:31:31.571660: W tensorflow/stream_executor/gpu/redzone_allocator.cc:314] Internal: ptxas exited with non-zero error code 256, output:
Relying on driver to perform ptx compilation.
Modify $PATH to customize ptxas location.
This message will be only logged once.
Found 924 images belonging to 3 classes.
Model: "sequential"
_________________________________________________________________
Layer (type)                 Output Shape              Param #
=================================================================
conv2d (Conv2D)              (None, 478, 638, 32)      896
_________________________________________________________________
max_pooling2d (MaxPooling2D) (None, 239, 319, 32)      0
_________________________________________________________________
dropout (Dropout)            (None, 239, 319, 32)      0
_________________________________________________________________
conv2d_1 (Conv2D)            (None, 237, 317, 128)     36992
_________________________________________________________________
max_pooling2d_1 (MaxPooling2 (None, 118, 158, 128)     0
_________________________________________________________________
dropout_1 (Dropout)          (None, 118, 158, 128)     0
_________________________________________________________________
conv2d_2 (Conv2D)            (None, 116, 156, 16)      18448
_________________________________________________________________
max_pooling2d_2 (MaxPooling2 (None, 58, 78, 16)        0
_________________________________________________________________
dropout_2 (Dropout)          (None, 58, 78, 16)        0
_________________________________________________________________
conv2d_3 (Conv2D)            (None, 56, 76, 16)        2320
_________________________________________________________________
max_pooling2d_3 (MaxPooling2 (None, 28, 38, 16)        0
_________________________________________________________________
dropout_3 (Dropout)          (None, 28, 38, 16)        0
_________________________________________________________________
flatten (Flatten)            (None, 17024)             0
_________________________________________________________________
dense (Dense)                (None, 128)               2179200
_________________________________________________________________
dense_1 (Dense)              (None, 3)                 387
=================================================================
Total params: 2,238,243
Trainable params: 2,238,243
Non-trainable params: 0
_________________________________________________________________
Epoch 1/25























116/116 [==============================] - 56s 433ms/step - loss: 0.6839 - accuracy: 0.3678
Epoch 2/25






















116/116 [==============================] - 47s 404ms/step - loss: 0.5249 - accuracy: 0.6357
…
