…
2022-06-14 04:15:56.595339: W tensorflow/stream_executor/gpu/asm_compiler.cc:63] Running ptxas --version returned 256
2022-06-14 04:15:56.640871: W tensorflow/stream_executor/gpu/redzone_allocator.cc:314] Internal: ptxas exited with non-zero error code 256, output:
Relying on driver to perform ptx compilation.
Modify $PATH to customize ptxas location.
This message will be only logged once.
Found 924 images belonging to 3 classes.
Model: "sequential"
_________________________________________________________________
Layer (type)                 Output Shape              Param #
=================================================================
conv2d (Conv2D)              (None, 478, 638, 64)      1792
_________________________________________________________________
max_pooling2d (MaxPooling2D) (None, 239, 319, 64)      0
_________________________________________________________________
dropout (Dropout)            (None, 239, 319, 64)      0
_________________________________________________________________
conv2d_1 (Conv2D)            (None, 237, 317, 128)     73856
_________________________________________________________________
max_pooling2d_1 (MaxPooling2 (None, 118, 158, 128)     0
_________________________________________________________________
dropout_1 (Dropout)          (None, 118, 158, 128)     0
_________________________________________________________________
conv2d_2 (Conv2D)            (None, 116, 156, 128)     147584
_________________________________________________________________
max_pooling2d_2 (MaxPooling2 (None, 58, 78, 128)       0
_________________________________________________________________
dropout_2 (Dropout)          (None, 58, 78, 128)       0
_________________________________________________________________
conv2d_3 (Conv2D)            (None, 56, 76, 32)        36896
_________________________________________________________________
max_pooling2d_3 (MaxPooling2 (None, 28, 38, 32)        0
_________________________________________________________________
dropout_3 (Dropout)          (None, 28, 38, 32)        0
_________________________________________________________________
flatten (Flatten)            (None, 34048)             0
_________________________________________________________________
dense (Dense)                (None, 32)                1089568
_________________________________________________________________
dense_1 (Dense)              (None, 3)                 99
=================================================================
Total params: 1,349,795
Trainable params: 1,349,795
Non-trainable params: 0
_________________________________________________________________
Epoch 1/30
























58/58 [==============================] - 58s 889ms/step - loss: 1.0325 - accuracy: 0.3557
Epoch 2/30























58/58 [==============================] - 49s 838ms/step - loss: 0.5886 - accuracy: 0.4604
…
