…
[34m[1mwandb[39m[22m: [33mWARNING[39m The save_model argument by default saves the model in the HDF5 format that cannot save custom objects like subclassed models and custom layers. This behavior will be deprecated in a future release in favor of the SavedModel format. Meanwhile, the HDF5 model is saved as W&B files and the SavedModel as W&B Artifacts.
Found 924 images belonging to 4 classes.
Model: "sequential"
_________________________________________________________________
Layer (type)                 Output Shape              Param #
=================================================================
conv2d (Conv2D)              (None, 478, 638, 32)      896
_________________________________________________________________
max_pooling2d (MaxPooling2D) (None, 239, 319, 32)      0
_________________________________________________________________
dropout (Dropout)            (None, 239, 319, 32)      0
_________________________________________________________________
conv2d_1 (Conv2D)            (None, 237, 317, 32)      9248
_________________________________________________________________
max_pooling2d_1 (MaxPooling2 (None, 118, 158, 32)      0
_________________________________________________________________
dropout_1 (Dropout)          (None, 118, 158, 32)      0
_________________________________________________________________
conv2d_2 (Conv2D)            (None, 116, 156, 32)      9248
_________________________________________________________________
max_pooling2d_2 (MaxPooling2 (None, 58, 78, 32)        0
_________________________________________________________________
dropout_2 (Dropout)          (None, 58, 78, 32)        0
_________________________________________________________________
conv2d_3 (Conv2D)            (None, 56, 76, 32)        9248
_________________________________________________________________
max_pooling2d_3 (MaxPooling2 (None, 28, 38, 32)        0
_________________________________________________________________
dropout_3 (Dropout)          (None, 28, 38, 32)        0
_________________________________________________________________
flatten (Flatten)            (None, 34048)             0
_________________________________________________________________
dense (Dense)                (None, 64)                2179136
_________________________________________________________________
dense_1 (Dense)              (None, 4)                 260
=================================================================
Total params: 2,208,036
Trainable params: 2,208,036
Non-trainable params: 0
_________________________________________________________________
2022-06-09 12:51:07.835335: W tensorflow/core/framework/cpu_allocator_impl.cc:80] Allocation of 117964800 exceeds 10% of free system memory.
2022-06-09 12:51:07.953226: I tensorflow/compiler/mlir/mlir_graph_optimization_pass.cc:116] None of the MLIR optimization passes are enabled (registered 2)
…
