…
2022-06-28 10:23:16.671654: W tensorflow/stream_executor/gpu/redzone_allocator.cc:314] Internal: ptxas exited with non-zero error code 256, output:
Relying on driver to perform ptx compilation.
Modify $PATH to customize ptxas location.
This message will be only logged once.
Found 1260 images belonging to 3 classes.
Found 246 images belonging to 3 classes.
Found 318 images belonging to 3 classes.
Model: "sequential"
_________________________________________________________________
Layer (type)                 Output Shape              Param #
=================================================================
conv2d (Conv2D)              (None, 478, 638, 64)      1792
_________________________________________________________________
max_pooling2d (MaxPooling2D) (None, 239, 319, 64)      0
_________________________________________________________________
dropout (Dropout)            (None, 239, 319, 64)      0
_________________________________________________________________
conv2d_1 (Conv2D)            (None, 237, 317, 64)      36928
_________________________________________________________________
max_pooling2d_1 (MaxPooling2 (None, 118, 158, 64)      0
_________________________________________________________________
dropout_1 (Dropout)          (None, 118, 158, 64)      0
_________________________________________________________________
conv2d_2 (Conv2D)            (None, 116, 156, 64)      36928
_________________________________________________________________
max_pooling2d_2 (MaxPooling2 (None, 58, 78, 64)        0
_________________________________________________________________
dropout_2 (Dropout)          (None, 58, 78, 64)        0
_________________________________________________________________
conv2d_3 (Conv2D)            (None, 56, 76, 128)       73856
_________________________________________________________________
max_pooling2d_3 (MaxPooling2 (None, 28, 38, 128)       0
_________________________________________________________________
dropout_3 (Dropout)          (None, 28, 38, 128)       0
_________________________________________________________________
global_average_pooling2d (Gl (None, 128)               0
_________________________________________________________________
dropout_4 (Dropout)          (None, 128)               0
_________________________________________________________________
dense (Dense)                (None, 3)                 387
=================================================================
Total params: 149,891
Trainable params: 149,891
Non-trainable params: 0
_________________________________________________________________
Epoch 1/200







158/158 [==============================] - 31s 150ms/step - loss: 1.0865 - accuracy: 0.3735 - val_loss: 0.9593 - val_accuracy: 0.5772
Epoch 2/200





158/158 [==============================] - 14s 86ms/step - loss: 0.9147 - accuracy: 0.5369 - val_loss: 0.9193 - val_accuracy: 0.5569
…
