…
2022-07-11 11:14:27.148775: W tensorflow/stream_executor/gpu/redzone_allocator.cc:314] Internal: ptxas exited with non-zero error code 256, output:
Relying on driver to perform ptx compilation.
Modify $PATH to customize ptxas location.
This message will be only logged once.
Found 764 images belonging to 3 classes.
Found 303 images belonging to 3 classes.
Found 297 images belonging to 3 classes.
Model: "sequential"
_________________________________________________________________
Layer (type)                 Output Shape              Param #
=================================================================
conv2d (Conv2D)              (None, 478, 638, 64)      1792
_________________________________________________________________
max_pooling2d (MaxPooling2D) (None, 239, 319, 64)      0
_________________________________________________________________
dropout (Dropout)            (None, 239, 319, 64)      0
_________________________________________________________________
conv2d_1 (Conv2D)            (None, 237, 317, 64)      36928
_________________________________________________________________
max_pooling2d_1 (MaxPooling2 (None, 118, 158, 64)      0
_________________________________________________________________
dropout_1 (Dropout)          (None, 118, 158, 64)      0
_________________________________________________________________
conv2d_2 (Conv2D)            (None, 116, 156, 128)     73856
_________________________________________________________________
max_pooling2d_2 (MaxPooling2 (None, 58, 78, 128)       0
_________________________________________________________________
dropout_2 (Dropout)          (None, 58, 78, 128)       0
_________________________________________________________________
conv2d_3 (Conv2D)            (None, 56, 76, 64)        73792
_________________________________________________________________
max_pooling2d_3 (MaxPooling2 (None, 28, 38, 64)        0
_________________________________________________________________
dropout_3 (Dropout)          (None, 28, 38, 64)        0
_________________________________________________________________
global_average_pooling2d (Gl (None, 64)                0
_________________________________________________________________
dropout_4 (Dropout)          (None, 64)                0
_________________________________________________________________
dense (Dense)                (None, 3)                 195
=================================================================
Total params: 186,563
Trainable params: 186,563
Non-trainable params: 0
_________________________________________________________________
Epoch 1/120






191/191 [==============================] - 27s 97ms/step - loss: 1.0726 - accuracy: 0.4341 - val_loss: 0.9556 - val_accuracy: 0.5215
Epoch 2/120





191/191 [==============================] - 14s 75ms/step - loss: 0.8991 - accuracy: 0.5591 - val_loss: 1.0093 - val_accuracy: 0.5017
…
