…
2022-06-23 05:26:12.407816: W tensorflow/stream_executor/gpu/redzone_allocator.cc:314] Internal: ptxas exited with non-zero error code 256, output:
Relying on driver to perform ptx compilation.
Modify $PATH to customize ptxas location.
This message will be only logged once.
Found 1120 images belonging to 4 classes.
Found 264 images belonging to 4 classes.
Found 220 images belonging to 4 classes.
Model: "sequential"
_________________________________________________________________
Layer (type)                 Output Shape              Param #
=================================================================
conv2d (Conv2D)              (None, 478, 638, 32)      896
_________________________________________________________________
max_pooling2d (MaxPooling2D) (None, 239, 319, 32)      0
_________________________________________________________________
dropout (Dropout)            (None, 239, 319, 32)      0
_________________________________________________________________
conv2d_1 (Conv2D)            (None, 237, 317, 32)      9248
_________________________________________________________________
max_pooling2d_1 (MaxPooling2 (None, 118, 158, 32)      0
_________________________________________________________________
dropout_1 (Dropout)          (None, 118, 158, 32)      0
_________________________________________________________________
conv2d_2 (Conv2D)            (None, 116, 156, 128)     36992
_________________________________________________________________
max_pooling2d_2 (MaxPooling2 (None, 58, 78, 128)       0
_________________________________________________________________
dropout_2 (Dropout)          (None, 58, 78, 128)       0
_________________________________________________________________
conv2d_3 (Conv2D)            (None, 56, 76, 16)        18448
_________________________________________________________________
max_pooling2d_3 (MaxPooling2 (None, 28, 38, 16)        0
_________________________________________________________________
dropout_3 (Dropout)          (None, 28, 38, 16)        0
_________________________________________________________________
global_average_pooling2d (Gl (None, 16)                0
_________________________________________________________________
dropout_4 (Dropout)          (None, 16)                0
_________________________________________________________________
dense (Dense)                (None, 4)                 68
=================================================================
Total params: 65,652
Trainable params: 65,652
Non-trainable params: 0
_________________________________________________________________
Epoch 1/100






280/280 [==============================] - 20s 51ms/step - loss: 1.3889 - accuracy: 0.2731 - val_loss: 1.2769 - val_accuracy: 0.3258
Epoch 2/100






280/280 [==============================] - 14s 50ms/step - loss: 1.2826 - accuracy: 0.3534 - val_loss: 1.1537 - val_accuracy: 0.4091
…
