…
2022-06-23 10:45:35.024448: W tensorflow/stream_executor/gpu/redzone_allocator.cc:314] Internal: ptxas exited with non-zero error code 256, output:
Relying on driver to perform ptx compilation.
Modify $PATH to customize ptxas location.
This message will be only logged once.
Found 1120 images belonging to 4 classes.
Found 264 images belonging to 4 classes.
Found 220 images belonging to 4 classes.
Model: "sequential"
_________________________________________________________________
Layer (type)                 Output Shape              Param #
=================================================================
conv2d (Conv2D)              (None, 478, 638, 32)      896
_________________________________________________________________
max_pooling2d (MaxPooling2D) (None, 239, 319, 32)      0
_________________________________________________________________
dropout (Dropout)            (None, 239, 319, 32)      0
_________________________________________________________________
conv2d_1 (Conv2D)            (None, 237, 317, 16)      4624
_________________________________________________________________
max_pooling2d_1 (MaxPooling2 (None, 118, 158, 16)      0
_________________________________________________________________
dropout_1 (Dropout)          (None, 118, 158, 16)      0
_________________________________________________________________
conv2d_2 (Conv2D)            (None, 116, 156, 32)      4640
_________________________________________________________________
max_pooling2d_2 (MaxPooling2 (None, 58, 78, 32)        0
_________________________________________________________________
dropout_2 (Dropout)          (None, 58, 78, 32)        0
_________________________________________________________________
conv2d_3 (Conv2D)            (None, 56, 76, 64)        18496
_________________________________________________________________
max_pooling2d_3 (MaxPooling2 (None, 28, 38, 64)        0
_________________________________________________________________
dropout_3 (Dropout)          (None, 28, 38, 64)        0
_________________________________________________________________
global_average_pooling2d (Gl (None, 64)                0
_________________________________________________________________
dropout_4 (Dropout)          (None, 64)                0
_________________________________________________________________
dense (Dense)                (None, 4)                 260
=================================================================
Total params: 28,916
Trainable params: 28,916
Non-trainable params: 0
_________________________________________________________________
Epoch 1/80






140/140 [==============================] - 21s 108ms/step - loss: 1.3737 - accuracy: 0.2997 - val_loss: 1.1845 - val_accuracy: 0.4242
Epoch 2/80






140/140 [==============================] - 15s 104ms/step - loss: 1.1833 - accuracy: 0.4854 - val_loss: 1.1763 - val_accuracy: 0.4394
…
